…
ments/Alzheimer/Codes/ML/runs/model_4719_BEST_VLoss_0.36
Epoch 6719/10000 : Loss - training: 0.393954 validation: 0.796596 Validation Accuracy: 0.6927 ES: model is triggering after patience:2000, min_delta:0 Restoreing Epoch:4719, VLoss:0.3634242117404938
embedding dim is  90
model is in cuda ? False
==========================================================================================
Layer (type:depth-idx)                   Output Shape              Param #
==========================================================================================
├─OutputFeedForward: 1-1                 [-1, 2]                   --
|    └─Conv1d: 2-1                       [-1, 1, 82]               6
|    └─LeakyReLU: 2-2                    [-1, 1, 82]               --
|    └─Linear: 2-3                       [-1, 2]                   166
|    └─LeakyReLU: 2-4                    [-1, 2]                   --
|    └─Dropout: 2-5                      [-1, 2]                   --
|    └─Linear: 2-6                       [-1, 2]                   6
==========================================================================================
Total params: 178
Trainable params: 178
Non-trainable params: 0
Total mult-adds (M): 0.00
==========================================================================================
Input size (MB): 0.00
Forward/backward pass size (MB): 0.00
Params size (MB): 0.00
Estimated Total Size (MB): 0.00
==========================================================================================
…
